…
2024-11-07 16:24:17,446 - mmdet3d - INFO - load 498 vehicle.emergency.police database infos
2024-11-07 16:24:17,446 - mmdet3d - INFO - load 751 human.pedestrian.stroller database infos
2024-11-07 16:24:17,446 - mmdet3d - INFO - load 619 animal database infos
2024-11-07 16:24:17,446 - mmdet3d - INFO - load 492 human.pedestrian.wheelchair database infos
2024-11-07 16:24:17,446 - mmdet3d - INFO - load 352 human.pedestrian.personal_mobility database infos
2024-11-07 16:24:19,294 - mmdet3d - INFO - Model:
CNNVQVAE(
  (encoder): SampleEncoderAutoAugment(
    (model): Sequential(
      (0): Sequential(
        (0): Conv2d(6, 64, kernel_size=(3, 3), stride=(1, 1))
        (1): BatchNorm2d(64, eps=1e-05, momentum=0.1, affine=True, track_running_stats=True)
        (2): ReLU(inplace=True)
      )
      (1): MaxPool2d(kernel_size=2, stride=2, padding=0, dilation=1, ceil_mode=False)
      (2): Sequential(
        (0): Conv2d(64, 128, kernel_size=(3, 3), stride=(1, 1))
        (1): BatchNorm2d(128, eps=1e-05, momentum=0.1, affine=True, track_running_stats=True)
        (2): ReLU(inplace=True)
      )
      (3): Conv2d(128, 128, kernel_size=(1, 1), stride=(1, 1))
    )
  )
  (codebook): NormEMAVectorQuantizer(
    (embedding): EmbeddingEMA()
  )
  (decoder): Decoder(
    (model): Sequential(
      (0): Conv2d(128, 512, kernel_size=(3, 3), stride=(1, 1), padding=(1, 1))
      (1): ResidualBlock(
        (block): Sequential(
          (0): GroupNorm(
            (gn): GroupNorm(32, 512, eps=1e-06, affine=True)
          )
          (1): Swish()
          (2): Conv2d(512, 512, kernel_size=(3, 3), stride=(1, 1), padding=(1, 1))
          (3): GroupNorm(
            (gn): GroupNorm(32, 512, eps=1e-06, affine=True)
          )
          (4): Swish()
          (5): Conv2d(512, 512, kernel_size=(3, 3), stride=(1, 1), padding=(1, 1))
        )
      )
      (2): NonLocalBlock(
        (gn): GroupNorm(
          (gn): GroupNorm(32, 512, eps=1e-06, affine=True)
        )
        (q): Conv2d(512, 512, kernel_size=(1, 1), stride=(1, 1))
        (k): Conv2d(512, 512, kernel_size=(1, 1), stride=(1, 1))
        (v): Conv2d(512, 512, kernel_size=(1, 1), stride=(1, 1))
        (proj_out): Conv2d(512, 512, kernel_size=(1, 1), stride=(1, 1))
      )
      (3): ResidualBlock(
        (block): Sequential(
          (0): GroupNorm(
            (gn): GroupNorm(32, 512, eps=1e-06, affine=True)
          )
          (1): Swish()
          (2): Conv2d(512, 512, kernel_size=(3, 3), stride=(1, 1), padding=(1, 1))
          (3): GroupNorm(
            (gn): GroupNorm(32, 512, eps=1e-06, affine=True)
          )
          (4): Swish()
          (5): Conv2d(512, 512, kernel_size=(3, 3), stride=(1, 1), padding=(1, 1))
        )
      )
      (4): ResidualBlock(
        (block): Sequential(
          (0): GroupNorm(
            (gn): GroupNorm(32, 512, eps=1e-06, affine=True)
          )
          (1): Swish()
          (2): Conv2d(512, 512, kernel_size=(3, 3), stride=(1, 1), padding=(1, 1))
          (3): GroupNorm(
            (gn): GroupNorm(32, 512, eps=1e-06, affine=True)
          )
          (4): Swish()
          (5): Conv2d(512, 512, kernel_size=(3, 3), stride=(1, 1), padding=(1, 1))
        )
      )
      (5): NonLocalBlock(
        (gn): GroupNorm(
          (gn): GroupNorm(32, 512, eps=1e-06, affine=True)
        )
        (q): Conv2d(512, 512, kernel_size=(1, 1), stride=(1, 1))
        (k): Conv2d(512, 512, kernel_size=(1, 1), stride=(1, 1))
        (v): Conv2d(512, 512, kernel_size=(1, 1), stride=(1, 1))
        (proj_out): Conv2d(512, 512, kernel_size=(1, 1), stride=(1, 1))
      )
      (6): ResidualBlock(
        (block): Sequential(
          (0): GroupNorm(
            (gn): GroupNorm(32, 512, eps=1e-06, affine=True)
          )
          (1): Swish()
          (2): Conv2d(512, 512, kernel_size=(3, 3), stride=(1, 1), padding=(1, 1))
          (3): GroupNorm(
            (gn): GroupNorm(32, 512, eps=1e-06, affine=True)
          )
          (4): Swish()
          (5): Conv2d(512, 512, kernel_size=(3, 3), stride=(1, 1), padding=(1, 1))
        )
      )
      (7): NonLocalBlock(
        (gn): GroupNorm(
          (gn): GroupNorm(32, 512, eps=1e-06, affine=True)
        )
        (q): Conv2d(512, 512, kernel_size=(1, 1), stride=(1, 1))
        (k): Conv2d(512, 512, kernel_size=(1, 1), stride=(1, 1))
        (v): Conv2d(512, 512, kernel_size=(1, 1), stride=(1, 1))
        (proj_out): Conv2d(512, 512, kernel_size=(1, 1), stride=(1, 1))
      )
      (8): ResidualBlock(
        (block): Sequential(
          (0): GroupNorm(
            (gn): GroupNorm(32, 512, eps=1e-06, affine=True)
          )
          (1): Swish()
          (2): Conv2d(512, 512, kernel_size=(3, 3), stride=(1, 1), padding=(1, 1))
          (3): GroupNorm(
            (gn): GroupNorm(32, 512, eps=1e-06, affine=True)
          )
          (4): Swish()
          (5): Conv2d(512, 512, kernel_size=(3, 3), stride=(1, 1), padding=(1, 1))
        )
      )
      (9): NonLocalBlock(
        (gn): GroupNorm(
          (gn): GroupNorm(32, 512, eps=1e-06, affine=True)
        )
        (q): Conv2d(512, 512, kernel_size=(1, 1), stride=(1, 1))
        (k): Conv2d(512, 512, kernel_size=(1, 1), stride=(1, 1))
        (v): Conv2d(512, 512, kernel_size=(1, 1), stride=(1, 1))
        (proj_out): Conv2d(512, 512, kernel_size=(1, 1), stride=(1, 1))
      )
      (10): ResidualBlock(
        (block): Sequential(
          (0): GroupNorm(
            (gn): GroupNorm(32, 512, eps=1e-06, affine=True)
          )
          (1): Swish()
          (2): Conv2d(512, 256, kernel_size=(3, 3), stride=(1, 1), padding=(1, 1))
          (3): GroupNorm(
            (gn): GroupNorm(32, 256, eps=1e-06, affine=True)
          )
          (4): Swish()
          (5): Conv2d(256, 256, kernel_size=(3, 3), stride=(1, 1), padding=(1, 1))
        )
        (channel_up): Conv2d(512, 256, kernel_size=(1, 1), stride=(1, 1))
      )
      (11): NonLocalBlock(
        (gn): GroupNorm(
          (gn): GroupNorm(32, 256, eps=1e-06, affine=True)
        )
        (q): Conv2d(256, 256, kernel_size=(1, 1), stride=(1, 1))
        (k): Conv2d(256, 256, kernel_size=(1, 1), stride=(1, 1))
        (v): Conv2d(256, 256, kernel_size=(1, 1), stride=(1, 1))
        (proj_out): Conv2d(256, 256, kernel_size=(1, 1), stride=(1, 1))
      )
      (12): ResidualBlock(
        (block): Sequential(
          (0): GroupNorm(
            (gn): GroupNorm(32, 256, eps=1e-06, affine=True)
          )
          (1): Swish()
          (2): Conv2d(256, 256, kernel_size=(3, 3), stride=(1, 1), padding=(1, 1))
          (3): GroupNorm(
            (gn): GroupNorm(32, 256, eps=1e-06, affine=True)
          )
          (4): Swish()
          (5): Conv2d(256, 256, kernel_size=(3, 3), stride=(1, 1), padding=(1, 1))
        )
      )
      (13): NonLocalBlock(
        (gn): GroupNorm(
          (gn): GroupNorm(32, 256, eps=1e-06, affine=True)
        )
        (q): Conv2d(256, 256, kernel_size=(1, 1), stride=(1, 1))
        (k): Conv2d(256, 256, kernel_size=(1, 1), stride=(1, 1))
        (v): Conv2d(256, 256, kernel_size=(1, 1), stride=(1, 1))
        (proj_out): Conv2d(256, 256, kernel_size=(1, 1), stride=(1, 1))
      )
      (14): ResidualBlock(
        (block): Sequential(
          (0): GroupNorm(
            (gn): GroupNorm(32, 256, eps=1e-06, affine=True)
          )
          (1): Swish()
          (2): Conv2d(256, 256, kernel_size=(3, 3), stride=(1, 1), padding=(1, 1))
          (3): GroupNorm(
            (gn): GroupNorm(32, 256, eps=1e-06, affine=True)
          )
          (4): Swish()
          (5): Conv2d(256, 256, kernel_size=(3, 3), stride=(1, 1), padding=(1, 1))
        )
      )
      (15): NonLocalBlock(
        (gn): GroupNorm(
          (gn): GroupNorm(32, 256, eps=1e-06, affine=True)
        )
        (q): Conv2d(256, 256, kernel_size=(1, 1), stride=(1, 1))
        (k): Conv2d(256, 256, kernel_size=(1, 1), stride=(1, 1))
        (v): Conv2d(256, 256, kernel_size=(1, 1), stride=(1, 1))
        (proj_out): Conv2d(256, 256, kernel_size=(1, 1), stride=(1, 1))
      )
      (16): UpSampleBlock(
        (conv): Conv2d(256, 256, kernel_size=(3, 3), stride=(1, 1), padding=(1, 1))
      )
      (17): ResidualBlock(
        (block): Sequential(
          (0): GroupNorm(
            (gn): GroupNorm(32, 256, eps=1e-06, affine=True)
          )
          (1): Swish()
          (2): Conv2d(256, 256, kernel_size=(3, 3), stride=(1, 1), padding=(1, 1))
          (3): GroupNorm(
            (gn): GroupNorm(32, 256, eps=1e-06, affine=True)
          )
          (4): Swish()
          (5): Conv2d(256, 256, kernel_size=(3, 3), stride=(1, 1), padding=(1, 1))
        )
      )
      (18): ResidualBlock(
        (block): Sequential(
          (0): GroupNorm(
            (gn): GroupNorm(32, 256, eps=1e-06, affine=True)
          )
          (1): Swish()
          (2): Conv2d(256, 256, kernel_size=(3, 3), stride=(1, 1), padding=(1, 1))
          (3): GroupNorm(
            (gn): GroupNorm(32, 256, eps=1e-06, affine=True)
          )
          (4): Swish()
          (5): Conv2d(256, 256, kernel_size=(3, 3), stride=(1, 1), padding=(1, 1))
        )
      )
      (19): ResidualBlock(
        (block): Sequential(
          (0): GroupNorm(
            (gn): GroupNorm(32, 256, eps=1e-06, affine=True)
          )
          (1): Swish()
          (2): Conv2d(256, 256, kernel_size=(3, 3), stride=(1, 1), padding=(1, 1))
          (3): GroupNorm(
            (gn): GroupNorm(32, 256, eps=1e-06, affine=True)
          )
          (4): Swish()
          (5): Conv2d(256, 256, kernel_size=(3, 3), stride=(1, 1), padding=(1, 1))
        )
      )
      (20): UpSampleBlock(
        (conv): Conv2d(256, 256, kernel_size=(3, 3), stride=(1, 1), padding=(1, 1))
      )
      (21): ResidualBlock(
        (block): Sequential(
          (0): GroupNorm(
            (gn): GroupNorm(32, 256, eps=1e-06, affine=True)
          )
          (1): Swish()
          (2): Conv2d(256, 128, kernel_size=(3, 3), stride=(1, 1), padding=(1, 1))
          (3): GroupNorm(
            (gn): GroupNorm(32, 128, eps=1e-06, affine=True)
          )
          (4): Swish()
          (5): Conv2d(128, 128, kernel_size=(3, 3), stride=(1, 1), padding=(1, 1))
        )
        (channel_up): Conv2d(256, 128, kernel_size=(1, 1), stride=(1, 1))
      )
      (22): ResidualBlock(
        (block): Sequential(
          (0): GroupNorm(
            (gn): GroupNorm(32, 128, eps=1e-06, affine=True)
          )
          (1): Swish()
          (2): Conv2d(128, 128, kernel_size=(3, 3), stride=(1, 1), padding=(1, 1))
          (3): GroupNorm(
            (gn): GroupNorm(32, 128, eps=1e-06, affine=True)
          )
          (4): Swish()
          (5): Conv2d(128, 128, kernel_size=(3, 3), stride=(1, 1), padding=(1, 1))
        )
      )
      (23): ResidualBlock(
        (block): Sequential(
          (0): GroupNorm(
            (gn): GroupNorm(32, 128, eps=1e-06, affine=True)
          )
          (1): Swish()
          (2): Conv2d(128, 128, kernel_size=(3, 3), stride=(1, 1), padding=(1, 1))
          (3): GroupNorm(
            (gn): GroupNorm(32, 128, eps=1e-06, affine=True)
          )
          (4): Swish()
          (5): Conv2d(128, 128, kernel_size=(3, 3), stride=(1, 1), padding=(1, 1))
        )
      )
      (24): UpSampleBlock(
        (conv): Conv2d(128, 128, kernel_size=(3, 3), stride=(1, 1), padding=(1, 1))
      )
      (25): GroupNorm(
        (gn): GroupNorm(32, 128, eps=1e-06, affine=True)
      )
      (26): Swish()
      (27): Conv2d(128, 6, kernel_size=(3, 3), stride=(1, 1), padding=(1, 1))
    )
  )
)
2024-11-07 16:24:35,483 - mmdet3d - INFO - Start running, host: ywzhang@ubuntu18, work_dir: /data/ywzhang/open-code/VQ-Map/vq_map_sur/workdir/tmp
2024-11-07 16:24:35,484 - mmdet3d - INFO - Hooks will be executed in the following order:
before_run:
(VERY_HIGH   ) CyclicLrUpdaterHook                
(HIGH        ) CyclicMomentumUpdaterHook          
…
